…
metrics: 	['mae', 'mse']	
in_shape: 	[12, 1, 144, 144]	
num_hidden: 	64,64,64,64	
filter_size: 	5	
stride: 	1	
patch_size: 	2	
layer_norm: 	0	
decouple_beta: 	0.1	
reverse_scheduled_sampling: 	1	
r_sampling_step_1: 	25000	
r_sampling_step_2: 	50000	
r_exp_alpha: 	5000	
scheduled_sampling: 	1	
sampling_stop_iter: 	50000	
sampling_start_value: 	1.0	
sampling_changing_rate: 	2e-05	
model_num: 	2	
2024-02-25 20:50:29,201 - Model info:
PredRNNv2_Model(
  (criterion): MSELoss()
  (cell_list): ModuleList(
    (0): SpatioTemporalLSTMCellv2(
      (conv_x): Sequential(
        (0): Conv2d(4, 448, kernel_size=(5, 5), stride=(1, 1), padding=(2, 2), bias=False)
      )
      (conv_h): Sequential(
        (0): Conv2d(64, 256, kernel_size=(5, 5), stride=(1, 1), padding=(2, 2), bias=False)
      )
      (conv_m): Sequential(
        (0): Conv2d(64, 192, kernel_size=(5, 5), stride=(1, 1), padding=(2, 2), bias=False)
      )
      (conv_o): Sequential(
        (0): Conv2d(128, 64, kernel_size=(5, 5), stride=(1, 1), padding=(2, 2), bias=False)
      )
      (conv_last): Conv2d(128, 64, kernel_size=(1, 1), stride=(1, 1), bias=False)
    )
    (1-3): 3 x SpatioTemporalLSTMCellv2(
      (conv_x): Sequential(
        (0): Conv2d(64, 448, kernel_size=(5, 5), stride=(1, 1), padding=(2, 2), bias=False)
      )
      (conv_h): Sequential(
        (0): Conv2d(64, 256, kernel_size=(5, 5), stride=(1, 1), padding=(2, 2), bias=False)
      )
      (conv_m): Sequential(
        (0): Conv2d(64, 192, kernel_size=(5, 5), stride=(1, 1), padding=(2, 2), bias=False)
      )
      (conv_o): Sequential(
        (0): Conv2d(128, 64, kernel_size=(5, 5), stride=(1, 1), padding=(2, 2), bias=False)
      )
      (conv_last): Conv2d(128, 64, kernel_size=(1, 1), stride=(1, 1), bias=False)
    )
  )
  (conv_last): Conv2d(64, 4, kernel_size=(1, 1), stride=(1, 1), bias=False)
  (adapter): Conv2d(64, 64, kernel_size=(1, 1), stride=(1, 1), bias=False)
)
| module                   | #parameters or shape   | #flops     |
|:-------------------------|:-----------------------|:-----------|
| model                    | 5.919M                 | 0.709T     |
|  cell_list               |  5.914M                |  0.705T    |
|   cell_list.0            |   0.975M               |   0.116T   |
|    cell_list.0.conv_x.0  |    44.8K               |    5.342G  |
…
