…
no_display_method_info: 	False	
sched: 	onecycle	
lr: 	0.001	
lr_k_decay: 	1.0	
warmup_lr: 	1e-06	
min_lr: 	1e-06	
final_div_factor: 	10000.0	
warmup_epoch: 	5	
decay_epoch: 	100	
decay_rate: 	0.1	
filter_bias_and_bn: 	False	
gpus: 	[0]	
metric_for_bestckpt: 	val_loss	
metrics: 	['mae', 'mse']	
in_shape: 	[12, 1, 144, 144]	
depths_downsample: 	2,6	
depths_upsample: 	6,2	
num_heads: 	4,8	
patch_size: 	2	
window_size: 	6	
embed_dim: 	64	
model_num: 	3	
2024-03-01 11:37:33,537 - Model info:
SwinLSTM_D_Model(
  (Downsample): DownSample(
    (patch_embed): PatchEmbed(
      (proj): Conv2d(1, 64, kernel_size=(2, 2), stride=(2, 2))
      (norm): LayerNorm((64,), eps=1e-05, elementwise_affine=True)
    )
    (layers): ModuleList(
      (0): SwinLSTMCell(
        (STBs): ModuleList(
          (0): STB(
            (norm1): LayerNorm((64,), eps=1e-05, elementwise_affine=True)
            (attn): WindowAttention(
              (qkv): Linear(in_features=64, out_features=192, bias=True)
              (attn_drop): Dropout(p=0.0, inplace=False)
              (proj): Linear(in_features=64, out_features=64, bias=True)
              (proj_drop): Dropout(p=0.0, inplace=False)
              (softmax): Softmax(dim=-1)
            )
            (drop_path): Identity()
            (norm2): LayerNorm((64,), eps=1e-05, elementwise_affine=True)
            (mlp): Mlp(
              (fc1): Linear(in_features=64, out_features=256, bias=True)
              (act): GELU(approximate='none')
              (drop1): Dropout(p=0.0, inplace=False)
              (fc2): Linear(in_features=256, out_features=64, bias=True)
              (drop2): Dropout(p=0.0, inplace=False)
            )
            (red): Linear(in_features=128, out_features=64, bias=True)
          )
          (1): STB(
            (norm1): LayerNorm((64,), eps=1e-05, elementwise_affine=True)
            (attn): WindowAttention(
              (qkv): Linear(in_features=64, out_features=192, bias=True)
              (attn_drop): Dropout(p=0.0, inplace=False)
              (proj): Linear(in_features=64, out_features=64, bias=True)
              (proj_drop): Dropout(p=0.0, inplace=False)
              (softmax): Softmax(dim=-1)
            )
            (drop_path): DropPath(drop_prob=0.014)
            (norm2): LayerNorm((64,), eps=1e-05, elementwise_affine=True)
            (mlp): Mlp(
              (fc1): Linear(in_features=64, out_features=256, bias=True)
              (act): GELU(approximate='none')
              (drop1): Dropout(p=0.0, inplace=False)
              (fc2): Linear(in_features=256, out_features=64, bias=True)
              (drop2): Dropout(p=0.0, inplace=False)
            )
            (red): Linear(in_features=128, out_features=64, bias=True)
          )
        )
      )
      (1): SwinLSTMCell(
        (STBs): ModuleList(
          (0): STB(
            (norm1): LayerNorm((128,), eps=1e-05, elementwise_affine=True)
            (attn): WindowAttention(
              (qkv): Linear(in_features=128, out_features=384, bias=True)
              (attn_drop): Dropout(p=0.0, inplace=False)
              (proj): Linear(in_features=128, out_features=128, bias=True)
              (proj_drop): Dropout(p=0.0, inplace=False)
              (softmax): Softmax(dim=-1)
            )
            (drop_path): DropPath(drop_prob=0.029)
            (norm2): LayerNorm((128,), eps=1e-05, elementwise_affine=True)
            (mlp): Mlp(
              (fc1): Linear(in_features=128, out_features=512, bias=True)
              (act): GELU(approximate='none')
              (drop1): Dropout(p=0.0, inplace=False)
              (fc2): Linear(in_features=512, out_features=128, bias=True)
              (drop2): Dropout(p=0.0, inplace=False)
            )
            (red): Linear(in_features=256, out_features=128, bias=True)
          )
          (1): STB(
            (norm1): LayerNorm((128,), eps=1e-05, elementwise_affine=True)
            (attn): WindowAttention(
              (qkv): Linear(in_features=128, out_features=384, bias=True)
              (attn_drop): Dropout(p=0.0, inplace=False)
              (proj): Linear(in_features=128, out_features=128, bias=True)
              (proj_drop): Dropout(p=0.0, inplace=False)
              (softmax): Softmax(dim=-1)
            )
            (drop_path): DropPath(drop_prob=0.043)
            (norm2): LayerNorm((128,), eps=1e-05, elementwise_affine=True)
            (mlp): Mlp(
              (fc1): Linear(in_features=128, out_features=512, bias=True)
              (act): GELU(approximate='none')
              (drop1): Dropout(p=0.0, inplace=False)
              (fc2): Linear(in_features=512, out_features=128, bias=True)
              (drop2): Dropout(p=0.0, inplace=False)
            )
            (red): Linear(in_features=256, out_features=128, bias=True)
          )
          (2): STB(
            (norm1): LayerNorm((128,), eps=1e-05, elementwise_affine=True)
            (attn): WindowAttention(
              (qkv): Linear(in_features=128, out_features=384, bias=True)
              (attn_drop): Dropout(p=0.0, inplace=False)
              (proj): Linear(in_features=128, out_features=128, bias=True)
              (proj_drop): Dropout(p=0.0, inplace=False)
              (softmax): Softmax(dim=-1)
            )
            (drop_path): DropPath(drop_prob=0.057)
            (norm2): LayerNorm((128,), eps=1e-05, elementwise_affine=True)
            (mlp): Mlp(
              (fc1): Linear(in_features=128, out_features=512, bias=True)
              (act): GELU(approximate='none')
              (drop1): Dropout(p=0.0, inplace=False)
              (fc2): Linear(in_features=512, out_features=128, bias=True)
              (drop2): Dropout(p=0.0, inplace=False)
            )
            (red): Linear(in_features=256, out_features=128, bias=True)
          )
          (3): STB(
            (norm1): LayerNorm((128,), eps=1e-05, elementwise_affine=True)
            (attn): WindowAttention(
              (qkv): Linear(in_features=128, out_features=384, bias=True)
              (attn_drop): Dropout(p=0.0, inplace=False)
              (proj): Linear(in_features=128, out_features=128, bias=True)
              (proj_drop): Dropout(p=0.0, inplace=False)
              (softmax): Softmax(dim=-1)
            )
            (drop_path): DropPath(drop_prob=0.071)
            (norm2): LayerNorm((128,), eps=1e-05, elementwise_affine=True)
            (mlp): Mlp(
              (fc1): Linear(in_features=128, out_features=512, bias=True)
              (act): GELU(approximate='none')
              (drop1): Dropout(p=0.0, inplace=False)
              (fc2): Linear(in_features=512, out_features=128, bias=True)
              (drop2): Dropout(p=0.0, inplace=False)
            )
            (red): Linear(in_features=256, out_features=128, bias=True)
          )
          (4): STB(
            (norm1): LayerNorm((128,), eps=1e-05, elementwise_affine=True)
            (attn): WindowAttention(
              (qkv): Linear(in_features=128, out_features=384, bias=True)
              (attn_drop): Dropout(p=0.0, inplace=False)
              (proj): Linear(in_features=128, out_features=128, bias=True)
              (proj_drop): Dropout(p=0.0, inplace=False)
              (softmax): Softmax(dim=-1)
            )
            (drop_path): DropPath(drop_prob=0.086)
            (norm2): LayerNorm((128,), eps=1e-05, elementwise_affine=True)
            (mlp): Mlp(
              (fc1): Linear(in_features=128, out_features=512, bias=True)
              (act): GELU(approximate='none')
              (drop1): Dropout(p=0.0, inplace=False)
              (fc2): Linear(in_features=512, out_features=128, bias=True)
              (drop2): Dropout(p=0.0, inplace=False)
            )
            (red): Linear(in_features=256, out_features=128, bias=True)
          )
          (5): STB(
            (norm1): LayerNorm((128,), eps=1e-05, elementwise_affine=True)
            (attn): WindowAttention(
              (qkv): Linear(in_features=128, out_features=384, bias=True)
              (attn_drop): Dropout(p=0.0, inplace=False)
              (proj): Linear(in_features=128, out_features=128, bias=True)
              (proj_drop): Dropout(p=0.0, inplace=False)
              (softmax): Softmax(dim=-1)
            )
            (drop_path): DropPath(drop_prob=0.100)
            (norm2): LayerNorm((128,), eps=1e-05, elementwise_affine=True)
            (mlp): Mlp(
              (fc1): Linear(in_features=128, out_features=512, bias=True)
              (act): GELU(approximate='none')
              (drop1): Dropout(p=0.0, inplace=False)
              (fc2): Linear(in_features=512, out_features=128, bias=True)
              (drop2): Dropout(p=0.0, inplace=False)
            )
            (red): Linear(in_features=256, out_features=128, bias=True)
          )
        )
      )
    )
    (downsample): ModuleList(
      (0): PatchMerging(
        (norm): LayerNorm((256,), eps=1e-05, elementwise_affine=True)
        (reduction): Linear(in_features=256, out_features=128, bias=False)
      )
      (1): PatchMerging(
        (norm): LayerNorm((512,), eps=1e-05, elementwise_affine=True)
        (reduction): Linear(in_features=512, out_features=256, bias=False)
      )
    )
  )
  (Upsample): UpSample(
    (patch_embed): PatchEmbed(
      (proj): Conv2d(1, 64, kernel_size=(2, 2), stride=(2, 2))
      (norm): LayerNorm((64,), eps=1e-05, elementwise_affine=True)
    )
    (Unembed): PatchInflated(
      (Conv): ConvTranspose2d(64, 1, kernel_size=(3, 3), stride=(2, 2), padding=(1, 1), output_padding=(1, 1))
    )
    (layers): ModuleList(
      (0): SwinLSTMCell(
        (STBs): ModuleList(
          (0): STB(
            (norm1): LayerNorm((256,), eps=1e-05, elementwise_affine=True)
            (attn): WindowAttention(
              (qkv): Linear(in_features=256, out_features=768, bias=True)
              (attn_drop): Dropout(p=0.0, inplace=False)
              (proj): Linear(in_features=256, out_features=256, bias=True)
              (proj_drop): Dropout(p=0.0, inplace=False)
              (softmax): Softmax(dim=-1)
            )
            (drop_path): DropPath(drop_prob=0.100)
            (norm2): LayerNorm((256,), eps=1e-05, elementwise_affine=True)
            (mlp): Mlp(
              (fc1): Linear(in_features=256, out_features=1024, bias=True)
              (act): GELU(approximate='none')
              (drop1): Dropout(p=0.0, inplace=False)
              (fc2): Linear(in_features=1024, out_features=256, bias=True)
              (drop2): Dropout(p=0.0, inplace=False)
            )
            (red): Linear(in_features=512, out_features=256, bias=True)
          )
          (1): STB(
            (norm1): LayerNorm((256,), eps=1e-05, elementwise_affine=True)
            (attn): WindowAttention(
              (qkv): Linear(in_features=256, out_features=768, bias=True)
              (attn_drop): Dropout(p=0.0, inplace=False)
              (proj): Linear(in_features=256, out_features=256, bias=True)
              (proj_drop): Dropout(p=0.0, inplace=False)
              (softmax): Softmax(dim=-1)
            )
            (drop_path): DropPath(drop_prob=0.086)
            (norm2): LayerNorm((256,), eps=1e-05, elementwise_affine=True)
            (mlp): Mlp(
              (fc1): Linear(in_features=256, out_features=1024, bias=True)
              (act): GELU(approximate='none')
              (drop1): Dropout(p=0.0, inplace=False)
              (fc2): Linear(in_features=1024, out_features=256, bias=True)
              (drop2): Dropout(p=0.0, inplace=False)
            )
            (red): Linear(in_features=512, out_features=256, bias=True)
          )
        )
      )
      (1): SwinLSTMCell(
        (STBs): ModuleList(
          (0): STB(
            (norm1): LayerNorm((128,), eps=1e-05, elementwise_affine=True)
            (attn): WindowAttention(
              (qkv): Linear(in_features=128, out_features=384, bias=True)
              (attn_drop): Dropout(p=0.0, inplace=False)
              (proj): Linear(in_features=128, out_features=128, bias=True)
              (proj_drop): Dropout(p=0.0, inplace=False)
              (softmax): Softmax(dim=-1)
            )
            (drop_path): DropPath(drop_prob=0.071)
            (norm2): LayerNorm((128,), eps=1e-05, elementwise_affine=True)
            (mlp): Mlp(
              (fc1): Linear(in_features=128, out_features=512, bias=True)
              (act): GELU(approximate='none')
              (drop1): Dropout(p=0.0, inplace=False)
              (fc2): Linear(in_features=512, out_features=128, bias=True)
              (drop2): Dropout(p=0.0, inplace=False)
            )
            (red): Linear(in_features=256, out_features=128, bias=True)
          )
          (1): STB(
            (norm1): LayerNorm((128,), eps=1e-05, elementwise_affine=True)
            (attn): WindowAttention(
              (qkv): Linear(in_features=128, out_features=384, bias=True)
              (attn_drop): Dropout(p=0.0, inplace=False)
              (proj): Linear(in_features=128, out_features=128, bias=True)
              (proj_drop): Dropout(p=0.0, inplace=False)
              (softmax): Softmax(dim=-1)
            )
            (drop_path): DropPath(drop_prob=0.057)
            (norm2): LayerNorm((128,), eps=1e-05, elementwise_affine=True)
            (mlp): Mlp(
              (fc1): Linear(in_features=128, out_features=512, bias=True)
              (act): GELU(approximate='none')
              (drop1): Dropout(p=0.0, inplace=False)
              (fc2): Linear(in_features=512, out_features=128, bias=True)
              (drop2): Dropout(p=0.0, inplace=False)
            )
            (red): Linear(in_features=256, out_features=128, bias=True)
          )
          (2): STB(
            (norm1): LayerNorm((128,), eps=1e-05, elementwise_affine=True)
            (attn): WindowAttention(
              (qkv): Linear(in_features=128, out_features=384, bias=True)
              (attn_drop): Dropout(p=0.0, inplace=False)
              (proj): Linear(in_features=128, out_features=128, bias=True)
              (proj_drop): Dropout(p=0.0, inplace=False)
              (softmax): Softmax(dim=-1)
            )
            (drop_path): DropPath(drop_prob=0.043)
            (norm2): LayerNorm((128,), eps=1e-05, elementwise_affine=True)
            (mlp): Mlp(
              (fc1): Linear(in_features=128, out_features=512, bias=True)
              (act): GELU(approximate='none')
              (drop1): Dropout(p=0.0, inplace=False)
              (fc2): Linear(in_features=512, out_features=128, bias=True)
              (drop2): Dropout(p=0.0, inplace=False)
            )
            (red): Linear(in_features=256, out_features=128, bias=True)
          )
          (3): STB(
            (norm1): LayerNorm((128,), eps=1e-05, elementwise_affine=True)
            (attn): WindowAttention(
              (qkv): Linear(in_features=128, out_features=384, bias=True)
              (attn_drop): Dropout(p=0.0, inplace=False)
              (proj): Linear(in_features=128, out_features=128, bias=True)
              (proj_drop): Dropout(p=0.0, inplace=False)
              (softmax): Softmax(dim=-1)
            )
            (drop_path): DropPath(drop_prob=0.029)
            (norm2): LayerNorm((128,), eps=1e-05, elementwise_affine=True)
            (mlp): Mlp(
              (fc1): Linear(in_features=128, out_features=512, bias=True)
              (act): GELU(approximate='none')
              (drop1): Dropout(p=0.0, inplace=False)
              (fc2): Linear(in_features=512, out_features=128, bias=True)
              (drop2): Dropout(p=0.0, inplace=False)
            )
            (red): Linear(in_features=256, out_features=128, bias=True)
          )
          (4): STB(
            (norm1): LayerNorm((128,), eps=1e-05, elementwise_affine=True)
            (attn): WindowAttention(
              (qkv): Linear(in_features=128, out_features=384, bias=True)
              (attn_drop): Dropout(p=0.0, inplace=False)
              (proj): Linear(in_features=128, out_features=128, bias=True)
              (proj_drop): Dropout(p=0.0, inplace=False)
              (softmax): Softmax(dim=-1)
            )
            (drop_path): DropPath(drop_prob=0.014)
            (norm2): LayerNorm((128,), eps=1e-05, elementwise_affine=True)
            (mlp): Mlp(
              (fc1): Linear(in_features=128, out_features=512, bias=True)
              (act): GELU(approximate='none')
              (drop1): Dropout(p=0.0, inplace=False)
              (fc2): Linear(in_features=512, out_features=128, bias=True)
              (drop2): Dropout(p=0.0, inplace=False)
            )
            (red): Linear(in_features=256, out_features=128, bias=True)
          )
          (5): STB(
            (norm1): LayerNorm((128,), eps=1e-05, elementwise_affine=True)
            (attn): WindowAttention(
              (qkv): Linear(in_features=128, out_features=384, bias=True)
              (attn_drop): Dropout(p=0.0, inplace=False)
              (proj): Linear(in_features=128, out_features=128, bias=True)
              (proj_drop): Dropout(p=0.0, inplace=False)
              (softmax): Softmax(dim=-1)
            )
            (drop_path): Identity()
            (norm2): LayerNorm((128,), eps=1e-05, elementwise_affine=True)
            (mlp): Mlp(
              (fc1): Linear(in_features=128, out_features=512, bias=True)
              (act): GELU(approximate='none')
              (drop1): Dropout(p=0.0, inplace=False)
              (fc2): Linear(in_features=512, out_features=128, bias=True)
              (drop2): Dropout(p=0.0, inplace=False)
            )
            (red): Linear(in_features=256, out_features=128, bias=True)
          )
        )
      )
    )
    (upsample): ModuleList(
      (0): PatchExpanding(
        (expand): Linear(in_features=256, out_features=512, bias=False)
        (norm): LayerNorm((128,), eps=1e-05, elementwise_affine=True)
      )
      (1): PatchExpanding(
        (expand): Linear(in_features=128, out_features=256, bias=False)
        (norm): LayerNorm((64,), eps=1e-05, elementwise_affine=True)
      )
    )
  )
  (criterion): MSELoss()
)
| module                          | #parameters or shape   | #flops     |
|:--------------------------------|:-----------------------|:-----------|
| model                           | 5.075M                 | 0.111T     |
|  Downsample                     |  1.676M                |  56.094G   |
|   Downsample.patch_embed        |   0.448K               |   68.678M  |
…
