…
no_display_method_info: 	False	
sched: 	onecycle	
lr: 	0.001	
lr_k_decay: 	1.0	
warmup_lr: 	1e-06	
min_lr: 	1e-06	
final_div_factor: 	10000.0	
warmup_epoch: 	5	
decay_epoch: 	100	
decay_rate: 	0.1	
filter_bias_and_bn: 	False	
gpus: 	[0]	
metric_for_bestckpt: 	val_loss	
metrics: 	['mae', 'mse']	
in_shape: 	[12, 1, 144, 144]	
depths_downsample: 	2,6	
depths_upsample: 	6,2	
num_heads: 	8,16	
patch_size: 	2	
window_size: 	6	
embed_dim: 	160	
model_num: 	8	
2024-03-22 10:25:46,704 - Model info:
SwinLSTM_D_Model(
  (Downsample): DownSample(
    (patch_embed): PatchEmbed(
      (proj): Conv2d(1, 160, kernel_size=(2, 2), stride=(2, 2))
      (norm): LayerNorm((160,), eps=1e-05, elementwise_affine=True)
    )
    (layers): ModuleList(
      (0): SwinLSTMCell(
        (STBs): ModuleList(
          (0): STB(
            (norm1): LayerNorm((160,), eps=1e-05, elementwise_affine=True)
            (attn): WindowAttention(
              (qkv): Linear(in_features=160, out_features=480, bias=True)
              (attn_drop): Dropout(p=0.0, inplace=False)
              (proj): Linear(in_features=160, out_features=160, bias=True)
              (proj_drop): Dropout(p=0.0, inplace=False)
              (softmax): Softmax(dim=-1)
            )
            (drop_path): Identity()
            (norm2): LayerNorm((160,), eps=1e-05, elementwise_affine=True)
            (mlp): Mlp(
              (fc1): Linear(in_features=160, out_features=640, bias=True)
              (act): GELU(approximate='none')
              (drop1): Dropout(p=0.0, inplace=False)
              (fc2): Linear(in_features=640, out_features=160, bias=True)
              (drop2): Dropout(p=0.0, inplace=False)
            )
            (red): Linear(in_features=320, out_features=160, bias=True)
          )
          (1): STB(
            (norm1): LayerNorm((160,), eps=1e-05, elementwise_affine=True)
            (attn): WindowAttention(
              (qkv): Linear(in_features=160, out_features=480, bias=True)
              (attn_drop): Dropout(p=0.0, inplace=False)
              (proj): Linear(in_features=160, out_features=160, bias=True)
              (proj_drop): Dropout(p=0.0, inplace=False)
              (softmax): Softmax(dim=-1)
            )
            (drop_path): DropPath(drop_prob=0.014)
            (norm2): LayerNorm((160,), eps=1e-05, elementwise_affine=True)
            (mlp): Mlp(
              (fc1): Linear(in_features=160, out_features=640, bias=True)
              (act): GELU(approximate='none')
              (drop1): Dropout(p=0.0, inplace=False)
              (fc2): Linear(in_features=640, out_features=160, bias=True)
              (drop2): Dropout(p=0.0, inplace=False)
            )
            (red): Linear(in_features=320, out_features=160, bias=True)
          )
        )
      )
      (1): SwinLSTMCell(
        (STBs): ModuleList(
          (0): STB(
            (norm1): LayerNorm((320,), eps=1e-05, elementwise_affine=True)
            (attn): WindowAttention(
              (qkv): Linear(in_features=320, out_features=960, bias=True)
              (attn_drop): Dropout(p=0.0, inplace=False)
              (proj): Linear(in_features=320, out_features=320, bias=True)
              (proj_drop): Dropout(p=0.0, inplace=False)
              (softmax): Softmax(dim=-1)
            )
            (drop_path): DropPath(drop_prob=0.029)
            (norm2): LayerNorm((320,), eps=1e-05, elementwise_affine=True)
            (mlp): Mlp(
              (fc1): Linear(in_features=320, out_features=1280, bias=True)
              (act): GELU(approximate='none')
              (drop1): Dropout(p=0.0, inplace=False)
              (fc2): Linear(in_features=1280, out_features=320, bias=True)
              (drop2): Dropout(p=0.0, inplace=False)
            )
            (red): Linear(in_features=640, out_features=320, bias=True)
          )
          (1): STB(
            (norm1): LayerNorm((320,), eps=1e-05, elementwise_affine=True)
            (attn): WindowAttention(
              (qkv): Linear(in_features=320, out_features=960, bias=True)
              (attn_drop): Dropout(p=0.0, inplace=False)
              (proj): Linear(in_features=320, out_features=320, bias=True)
              (proj_drop): Dropout(p=0.0, inplace=False)
              (softmax): Softmax(dim=-1)
            )
            (drop_path): DropPath(drop_prob=0.043)
            (norm2): LayerNorm((320,), eps=1e-05, elementwise_affine=True)
            (mlp): Mlp(
              (fc1): Linear(in_features=320, out_features=1280, bias=True)
              (act): GELU(approximate='none')
              (drop1): Dropout(p=0.0, inplace=False)
              (fc2): Linear(in_features=1280, out_features=320, bias=True)
              (drop2): Dropout(p=0.0, inplace=False)
            )
            (red): Linear(in_features=640, out_features=320, bias=True)
          )
          (2): STB(
            (norm1): LayerNorm((320,), eps=1e-05, elementwise_affine=True)
            (attn): WindowAttention(
              (qkv): Linear(in_features=320, out_features=960, bias=True)
              (attn_drop): Dropout(p=0.0, inplace=False)
              (proj): Linear(in_features=320, out_features=320, bias=True)
              (proj_drop): Dropout(p=0.0, inplace=False)
              (softmax): Softmax(dim=-1)
            )
            (drop_path): DropPath(drop_prob=0.057)
            (norm2): LayerNorm((320,), eps=1e-05, elementwise_affine=True)
            (mlp): Mlp(
              (fc1): Linear(in_features=320, out_features=1280, bias=True)
              (act): GELU(approximate='none')
              (drop1): Dropout(p=0.0, inplace=False)
              (fc2): Linear(in_features=1280, out_features=320, bias=True)
              (drop2): Dropout(p=0.0, inplace=False)
            )
            (red): Linear(in_features=640, out_features=320, bias=True)
          )
          (3): STB(
            (norm1): LayerNorm((320,), eps=1e-05, elementwise_affine=True)
            (attn): WindowAttention(
              (qkv): Linear(in_features=320, out_features=960, bias=True)
              (attn_drop): Dropout(p=0.0, inplace=False)
              (proj): Linear(in_features=320, out_features=320, bias=True)
              (proj_drop): Dropout(p=0.0, inplace=False)
              (softmax): Softmax(dim=-1)
            )
            (drop_path): DropPath(drop_prob=0.071)
            (norm2): LayerNorm((320,), eps=1e-05, elementwise_affine=True)
            (mlp): Mlp(
              (fc1): Linear(in_features=320, out_features=1280, bias=True)
              (act): GELU(approximate='none')
              (drop1): Dropout(p=0.0, inplace=False)
              (fc2): Linear(in_features=1280, out_features=320, bias=True)
              (drop2): Dropout(p=0.0, inplace=False)
            )
            (red): Linear(in_features=640, out_features=320, bias=True)
          )
          (4): STB(
            (norm1): LayerNorm((320,), eps=1e-05, elementwise_affine=True)
            (attn): WindowAttention(
              (qkv): Linear(in_features=320, out_features=960, bias=True)
              (attn_drop): Dropout(p=0.0, inplace=False)
              (proj): Linear(in_features=320, out_features=320, bias=True)
              (proj_drop): Dropout(p=0.0, inplace=False)
              (softmax): Softmax(dim=-1)
            )
            (drop_path): DropPath(drop_prob=0.086)
            (norm2): LayerNorm((320,), eps=1e-05, elementwise_affine=True)
            (mlp): Mlp(
              (fc1): Linear(in_features=320, out_features=1280, bias=True)
              (act): GELU(approximate='none')
              (drop1): Dropout(p=0.0, inplace=False)
              (fc2): Linear(in_features=1280, out_features=320, bias=True)
              (drop2): Dropout(p=0.0, inplace=False)
            )
            (red): Linear(in_features=640, out_features=320, bias=True)
          )
          (5): STB(
            (norm1): LayerNorm((320,), eps=1e-05, elementwise_affine=True)
            (attn): WindowAttention(
              (qkv): Linear(in_features=320, out_features=960, bias=True)
              (attn_drop): Dropout(p=0.0, inplace=False)
              (proj): Linear(in_features=320, out_features=320, bias=True)
              (proj_drop): Dropout(p=0.0, inplace=False)
              (softmax): Softmax(dim=-1)
            )
            (drop_path): DropPath(drop_prob=0.100)
            (norm2): LayerNorm((320,), eps=1e-05, elementwise_affine=True)
            (mlp): Mlp(
              (fc1): Linear(in_features=320, out_features=1280, bias=True)
              (act): GELU(approximate='none')
              (drop1): Dropout(p=0.0, inplace=False)
              (fc2): Linear(in_features=1280, out_features=320, bias=True)
              (drop2): Dropout(p=0.0, inplace=False)
            )
            (red): Linear(in_features=640, out_features=320, bias=True)
          )
        )
      )
    )
    (downsample): ModuleList(
      (0): PatchMerging(
        (norm): LayerNorm((640,), eps=1e-05, elementwise_affine=True)
        (reduction): Linear(in_features=640, out_features=320, bias=False)
      )
      (1): PatchMerging(
        (norm): LayerNorm((1280,), eps=1e-05, elementwise_affine=True)
        (reduction): Linear(in_features=1280, out_features=640, bias=False)
      )
    )
  )
  (Upsample): UpSample(
    (patch_embed): PatchEmbed(
      (proj): Conv2d(1, 160, kernel_size=(2, 2), stride=(2, 2))
      (norm): LayerNorm((160,), eps=1e-05, elementwise_affine=True)
    )
    (Unembed): PatchInflated(
      (Conv): ConvTranspose2d(160, 1, kernel_size=(3, 3), stride=(2, 2), padding=(1, 1), output_padding=(1, 1))
    )
    (layers): ModuleList(
      (0): SwinLSTMCell(
        (STBs): ModuleList(
          (0): STB(
            (norm1): LayerNorm((640,), eps=1e-05, elementwise_affine=True)
            (attn): WindowAttention(
              (qkv): Linear(in_features=640, out_features=1920, bias=True)
              (attn_drop): Dropout(p=0.0, inplace=False)
              (proj): Linear(in_features=640, out_features=640, bias=True)
              (proj_drop): Dropout(p=0.0, inplace=False)
              (softmax): Softmax(dim=-1)
            )
            (drop_path): DropPath(drop_prob=0.100)
            (norm2): LayerNorm((640,), eps=1e-05, elementwise_affine=True)
            (mlp): Mlp(
              (fc1): Linear(in_features=640, out_features=2560, bias=True)
              (act): GELU(approximate='none')
              (drop1): Dropout(p=0.0, inplace=False)
              (fc2): Linear(in_features=2560, out_features=640, bias=True)
              (drop2): Dropout(p=0.0, inplace=False)
            )
            (red): Linear(in_features=1280, out_features=640, bias=True)
          )
          (1): STB(
            (norm1): LayerNorm((640,), eps=1e-05, elementwise_affine=True)
            (attn): WindowAttention(
              (qkv): Linear(in_features=640, out_features=1920, bias=True)
              (attn_drop): Dropout(p=0.0, inplace=False)
              (proj): Linear(in_features=640, out_features=640, bias=True)
              (proj_drop): Dropout(p=0.0, inplace=False)
              (softmax): Softmax(dim=-1)
            )
            (drop_path): DropPath(drop_prob=0.086)
            (norm2): LayerNorm((640,), eps=1e-05, elementwise_affine=True)
            (mlp): Mlp(
              (fc1): Linear(in_features=640, out_features=2560, bias=True)
              (act): GELU(approximate='none')
              (drop1): Dropout(p=0.0, inplace=False)
              (fc2): Linear(in_features=2560, out_features=640, bias=True)
              (drop2): Dropout(p=0.0, inplace=False)
            )
            (red): Linear(in_features=1280, out_features=640, bias=True)
          )
        )
      )
      (1): SwinLSTMCell(
        (STBs): ModuleList(
          (0): STB(
            (norm1): LayerNorm((320,), eps=1e-05, elementwise_affine=True)
            (attn): WindowAttention(
              (qkv): Linear(in_features=320, out_features=960, bias=True)
              (attn_drop): Dropout(p=0.0, inplace=False)
              (proj): Linear(in_features=320, out_features=320, bias=True)
              (proj_drop): Dropout(p=0.0, inplace=False)
              (softmax): Softmax(dim=-1)
            )
            (drop_path): DropPath(drop_prob=0.071)
            (norm2): LayerNorm((320,), eps=1e-05, elementwise_affine=True)
            (mlp): Mlp(
              (fc1): Linear(in_features=320, out_features=1280, bias=True)
              (act): GELU(approximate='none')
              (drop1): Dropout(p=0.0, inplace=False)
              (fc2): Linear(in_features=1280, out_features=320, bias=True)
              (drop2): Dropout(p=0.0, inplace=False)
            )
            (red): Linear(in_features=640, out_features=320, bias=True)
          )
          (1): STB(
            (norm1): LayerNorm((320,), eps=1e-05, elementwise_affine=True)
            (attn): WindowAttention(
              (qkv): Linear(in_features=320, out_features=960, bias=True)
              (attn_drop): Dropout(p=0.0, inplace=False)
              (proj): Linear(in_features=320, out_features=320, bias=True)
              (proj_drop): Dropout(p=0.0, inplace=False)
              (softmax): Softmax(dim=-1)
            )
            (drop_path): DropPath(drop_prob=0.057)
            (norm2): LayerNorm((320,), eps=1e-05, elementwise_affine=True)
            (mlp): Mlp(
              (fc1): Linear(in_features=320, out_features=1280, bias=True)
              (act): GELU(approximate='none')
              (drop1): Dropout(p=0.0, inplace=False)
              (fc2): Linear(in_features=1280, out_features=320, bias=True)
              (drop2): Dropout(p=0.0, inplace=False)
            )
            (red): Linear(in_features=640, out_features=320, bias=True)
          )
          (2): STB(
            (norm1): LayerNorm((320,), eps=1e-05, elementwise_affine=True)
            (attn): WindowAttention(
              (qkv): Linear(in_features=320, out_features=960, bias=True)
              (attn_drop): Dropout(p=0.0, inplace=False)
              (proj): Linear(in_features=320, out_features=320, bias=True)
              (proj_drop): Dropout(p=0.0, inplace=False)
              (softmax): Softmax(dim=-1)
            )
            (drop_path): DropPath(drop_prob=0.043)
            (norm2): LayerNorm((320,), eps=1e-05, elementwise_affine=True)
            (mlp): Mlp(
              (fc1): Linear(in_features=320, out_features=1280, bias=True)
              (act): GELU(approximate='none')
              (drop1): Dropout(p=0.0, inplace=False)
              (fc2): Linear(in_features=1280, out_features=320, bias=True)
              (drop2): Dropout(p=0.0, inplace=False)
            )
            (red): Linear(in_features=640, out_features=320, bias=True)
          )
          (3): STB(
            (norm1): LayerNorm((320,), eps=1e-05, elementwise_affine=True)
            (attn): WindowAttention(
              (qkv): Linear(in_features=320, out_features=960, bias=True)
              (attn_drop): Dropout(p=0.0, inplace=False)
              (proj): Linear(in_features=320, out_features=320, bias=True)
              (proj_drop): Dropout(p=0.0, inplace=False)
              (softmax): Softmax(dim=-1)
            )
            (drop_path): DropPath(drop_prob=0.029)
            (norm2): LayerNorm((320,), eps=1e-05, elementwise_affine=True)
            (mlp): Mlp(
              (fc1): Linear(in_features=320, out_features=1280, bias=True)
              (act): GELU(approximate='none')
              (drop1): Dropout(p=0.0, inplace=False)
              (fc2): Linear(in_features=1280, out_features=320, bias=True)
              (drop2): Dropout(p=0.0, inplace=False)
            )
            (red): Linear(in_features=640, out_features=320, bias=True)
          )
          (4): STB(
            (norm1): LayerNorm((320,), eps=1e-05, elementwise_affine=True)
            (attn): WindowAttention(
              (qkv): Linear(in_features=320, out_features=960, bias=True)
              (attn_drop): Dropout(p=0.0, inplace=False)
              (proj): Linear(in_features=320, out_features=320, bias=True)
              (proj_drop): Dropout(p=0.0, inplace=False)
              (softmax): Softmax(dim=-1)
            )
            (drop_path): DropPath(drop_prob=0.014)
            (norm2): LayerNorm((320,), eps=1e-05, elementwise_affine=True)
            (mlp): Mlp(
              (fc1): Linear(in_features=320, out_features=1280, bias=True)
              (act): GELU(approximate='none')
              (drop1): Dropout(p=0.0, inplace=False)
              (fc2): Linear(in_features=1280, out_features=320, bias=True)
              (drop2): Dropout(p=0.0, inplace=False)
            )
            (red): Linear(in_features=640, out_features=320, bias=True)
          )
          (5): STB(
            (norm1): LayerNorm((320,), eps=1e-05, elementwise_affine=True)
            (attn): WindowAttention(
              (qkv): Linear(in_features=320, out_features=960, bias=True)
              (attn_drop): Dropout(p=0.0, inplace=False)
              (proj): Linear(in_features=320, out_features=320, bias=True)
              (proj_drop): Dropout(p=0.0, inplace=False)
              (softmax): Softmax(dim=-1)
            )
            (drop_path): Identity()
            (norm2): LayerNorm((320,), eps=1e-05, elementwise_affine=True)
            (mlp): Mlp(
              (fc1): Linear(in_features=320, out_features=1280, bias=True)
              (act): GELU(approximate='none')
              (drop1): Dropout(p=0.0, inplace=False)
              (fc2): Linear(in_features=1280, out_features=320, bias=True)
              (drop2): Dropout(p=0.0, inplace=False)
            )
            (red): Linear(in_features=640, out_features=320, bias=True)
          )
        )
      )
    )
    (upsample): ModuleList(
      (0): PatchExpanding(
        (expand): Linear(in_features=640, out_features=1280, bias=False)
        (norm): LayerNorm((320,), eps=1e-05, elementwise_affine=True)
      )
      (1): PatchExpanding(
        (expand): Linear(in_features=320, out_features=640, bias=False)
        (norm): LayerNorm((160,), eps=1e-05, elementwise_affine=True)
      )
    )
  )
  (criterion): MSELoss()
)
| module                          | #parameters or shape   | #flops     |
|:--------------------------------|:-----------------------|:-----------|
| model                           | 31.545M                | 0.674T     |
|  Downsample                     |  10.392M               |  0.338T    |
|   Downsample.patch_embed        |   1.12K                |   0.172G   |
…
